Project/model.pth (torch, 189788 bytes, 10 tensors)

conv1.weight f4 [6, 1, 5, 5]
00000000: 0eca 103e 9fc4 423e 121b 143e ba8e eebc
00000010: aefc 9a3d c7cd 003e 25ef e2bd 4f8c a5bd
00000020: 5707 b6bd 568c 3a3e b2dd 2f3c 810b cbbd
00000030: 9fae 083e cf48 15be 31e6 723d 362d 203c
00000040: fdd1 52be e623 553d 8f42 13be 91b6 f5bc
00000050: 50d2 683d fbff 29be dcde 52be 7bf2 2abc
00000060: 77d7 27be ab11 9bbd bc4c 523e f7ca 483e
00000070: 2991 b53e 2e97 a33e 011c 09be 53ac 93bd
00000080: f24c 503e bb95 ed3e 91b1 1d3f 405f 8ebe
00000090: 89df f5bc d026 ab3e 9ac4 ec3e abd2 e73e
000000a0: c8b7 0dbe b262 873e 2cb9 333e d460 213f
000000b0: 38e7 243f 1c9c 2ebe 4c5d 4d3e a51c 923e
000000c0: 2f62 063f 59bd 1b3f 3ba4 cc3e 497b 063f
000000d0: 21d0 163f 52e8 363e ed5b f33d e0f0 0c3f
000000e0: b9a8 2f3f dfcd b23e 3018 d93e 4ad0 363d
000000f0: c794 153f d05c 133f 76b3 ac3e 64d4 c83e
00000100: 9a24 413e 0dfe 8a3e 8b6d 323f 5e5b 0c3f
00000110: 3833 133e c8e1 3abe d0ae da3e 53f9 eb3e
00000120: 67d4 213e 2001 a43e 0522 8fbd 843a cc3d
00000130: e173 d23e 82f3 9b3e 8252 883e 325d e53b
00000140: 3164 1b3e ad09 b33e 34d5 3e3e ae0b ce3e
00000150: 56ee 6d3e 6ade d93e f4db 733e 23ca cb3e
00000160: 175e d33e 97d5 013f 9875 8a3e e3b1 fb3e
00000170: e0b6 ca3e df11 b93e fa4b e33e 597a 94bd
00000180: 6498 be3e 3fd5 643e 6c29 e63e 96df 943e
00000190: a0f1 03bd 0523 1fbd a43c 7e3e f080 ebbd
000001a0: 2929 55be 5ee6 843e 9612 c33d 5cd5 8e3c
000001b0: 1970 1d3e 2974 4bbe 83e9 203e 4fe0 5a3e
000001c0: 03fe 18bd db1c 76be c232 23be c2d3 c23e
000001d0: 2820 843d 3b06 1a3d fc94 53be da1b 9fbe
000001e0: c169 793e 5675 5a3d d5ba 163e 00ce 56be
000001f0: f317 cdbd 644f 19bd 4110 263e ce98 403e
00000200: 4ae5 88bb 3871 c7bd 00c2 53bd 6759 573e
00000210: e0fe f7bd 4e12 2ebe b61d 8c3d 8282 043e
00000220: 24af c33c 59c0 ae3d 388f 26be 2b9b 073d
00000230: 3cd1 8c3e 6536 113b d377 34be 34c9 8bbe
00000240: 5daf 85be bf61 143e 3ade a63d 3d4b 503c
00000250: 36f2 013e 9499 83be
0.14139578 0.19020317 0.14463452 -0.029120792 0.07567726 0.12578498 -0.110807694 -0.08083402
-0.08888119 0.18217596 0.010734009 -0.099143036 0.13347863 -0.14578556 0.05930156 0.009776404
-0.20587917 0.05203619 -0.14380859 -0.029994281 0.056841195 -0.16601555 -0.20592827 -0.010433788
-0.16390787 -0.07571729 0.20537084 0.19608675 0.3546231 0.31951278 -0.13389589 -0.072106026
0.20341852 0.46403298 0.6159907 -0.27807045 -0.030013816 0.3342805 0.46243745 0.45277914
-0.13839638 0.26442486 0.17551106 0.63038373 0.6441531 -0.17051739 0.20055121 0.2853748
0.52493566 0.60835797 0.39969048 0.5253187 0.5891133 0.1786206 0.11882768 0.55055046
0.68616825 0.34922692 0.42401266 0.044632234 0.5843014 0.57563496 0.33730668 0.3922454
0.18861619 0.2714695 0.696984 0.54826915 0.14375007 -0.18250191 0.42711496 0.46088657
0.15803681 0.32032108 -0.069889106 0.099720985 0.41104034 0.3045922 0.26625448 0.006999635
0.15174939 0.3496832 0.18636018 0.40243286 0.23235449 0.425525 0.23814374 0.39802656
0.41282722 0.5071654 0.27042842 0.49159154 0.39592648 0.36146447 0.44393903 -0.072498985
0.3722564 0.22346972 0.44953477 0.29076833 -0.032212853 -0.038851757 0.2482782 -0.11499202
-0.20816483 0.25957006 0.09525029 0.017435722 0.15374793 -0.1986853 0.15714078 0.2137463
-0.03735162 -0.24034445 -0.15937331 0.38052183 0.06451446 0.037603598 -0.20662302 -0.31075937
0.24356748 0.053334557 0.14719708 -0.2097702 -0.100143336 -0.03742923 0.16217138 0.1880829
-0.004177724 -0.09738392 -0.051698685 0.21030198 -0.121091604 -0.1699917 0.068416044 0.1294041
0.023887224 0.08532781 -0.16265571 0.033106964 0.27503383 0.0022157666 -0.17623834 -0.27301943
-0.26110354 0.14490412 0.08147855 0.012713251 0.12690052 -0.25703108

conv1.bias f4 [6]
00000000: a2d7 a23e 2afb 7abd 1264 14be 9875 7cbd
00000010: 9542 cf3e 946a 843e
0.3180514 -0.061274685 -0.14491299 -0.061635584 0.40480486 0.25862563

conv2.weight f4 [16, 6, 5, 5]
00000000: 773e 3c3e 5154 443e c384 c63d e87f 04be
00000010: deb7 26bd c0c3 273e 7aa1 1c3e 3479 0e3d
00000020: 0e69 46be 3827 21be 4542 893e c728 963e
00000030: a8ab 403e a640 3cbe 9df9 53be e855 043e
00000040: 2698 853e 1d50 4b3e c0b0 abbe f8c1 72be
00000050: bd8f 753d c36d 4c3e a778 4d3e 2ec3 3bbe
00000060: d45d 03be f938 ddbd 4142 a3bb d633 ba3c
00000070: 5a54 123e 5e73 a23d 8737 13be a7d1 babc
00000080: cada 073e c031 513e 2c5d c53d 55b9 0ebe
00000090: 27d6 55bd 20e0 083e 91cf b33d beeb ca3d
000000a0: 748b 55be 53f3 2bbe 75c0 e73d e89c 603e
000000b0: 15d8 213e e6da debd 3cb3 e2bd 091d a13d
000000c0: 67b9 153e feaa 8b3d d50b 17bd ca46 19bb
000000d0: e4ca 363d 0305 a13d 4e8c e33b fe48 dfbc
000000e0: 1c05 1abe e1c1 ccbc 41df e83d 1dcf 263e
000000f0: af45 c3bd 3377 13be d9a8 12be fa3b 6c3d
00000100: d33d fd3d 1353 38bd 08c9 c8bd 6699 8dbd
00000110: b4e7 f539 67c8 463e 0eae dbbd 2609 3fbe
00000120: f526 efbd e77d 5fbd 7b31 2e3e 9768 cabc
00000130: 4e4b 423d 2089 d33d 8d42 233e f511 d33d
00000140: 0d04 f0bd 9cd0 9e3c c065 b03c aef0 013e
00000150: 2aad 3b3e 53be 0dbd ba2b e8bd 1da7 a03c
00000160: 7250 753d 42aa 423e a528 f9bd e656 48be
00000170: df14 3dbd 26ef 1a3e 6047 243e 8e21 12bd
00000180: 8689 2dbe 9c31 6abd 27dc cb3d 893d 943d
00000190: d710 2a3d ae8f 35bd fc94 2abe c2fe 66bd
000001a0: bbc8 cd3c dfdd 3e3e 73b7 823c 67c5 14be
000001b0: 0064 dfbd ec54 293d 1ac7 1f3e 3bfa 00bd
000001c0: 85b0 93be ebb6 17be 305c 103e dc33 cd3d
000001d0: 334c bf3d 88fc 99be 6011 9bbe 2bc0 223c
000001e0: 5d2e 343e c3d7 273e d34a edbd d963 97be
000001f0: 6f1b 553d 0d07 323e ce3a 083d f386 89bd
00000200: e401 4ebd 896b 6b3d f63e 0a3e 0ad1 3f3e
00000210: 39a0 1cbe c629 37be 0928 b03b 5015 183e
00000220: 7606 883e b0bb 78be 9285 edbd 4e25 d0bc
00000230: 437c 8f3e fc86 3f3e 09ea 8fbe 53d3 8fbe
00000240: 9e51 4fbc fe1d 053e ad41 623e 9df6 82bb
00000250: 79d3 89be 2b3e 51bd ad50 7cbe 415b c0bd
00000260: 70da 3fbd a29c 00bd d614 c1bd 1848 80be
00000270: c7b5 abbe 2b18 93be e876 6cbd f4a7 463d
00000280: e921 93be 78f9 c5be 41cd c9be 80c0 febd
00000290: 3bcd c33d 1441 87be 7fe2 cfbe 0df6 72be
000002a0: 7251 2cbd 6e99 083d 8b09 a7bc e502 5bbe
000002b0: 1d5c efbd 1e10 993d 4ed7 503d 2d0e c5ba
000002c0: 8a82 43bd bce3 d5bd 6b83 b5b9 75aa 17be
000002d0: d88c b43d 2ef5 683c d762 75bd 0eb3 8bbd
000002e0: 9e2d 1abd ae41 183e 8d66 d23d cad1 33bc
000002f0: e2bd 08be 86e2 10be a4a7 363e edfc 323e
00000300: 8dbe b43d 1ca3 05be 1611 b1bd 66b2 3b3e
00000310: adf5 bf3d 1fc4 9ebd 7fcf 0ebe d7fd 8abd
00000320: 372a b3bd d6f7 7e3d 142d 4b3d 6898 c5bd
00000330: f447 9ebd 0531 99bd 3e8d 063d c723 c03d
00000340: 2eb9 25bd 931a 1f3d 7db6 e33d df9b cb3d
00000350: d5ce 4f3e 2441 073e 6c7a abbd f3fa f53c
00000360: 5415 0a3e 6699 423e 4313 383e 90f8 88bd
00000370: 63a0 80bd d25a 043e 7ea9 7a3e 8466 263e
00000380: c310 71bd e619 b2bc 6230 0e3d 2649 0d3d
00000390: bb52 06be a688 07be 8039 fe3d b9e3 f83d
000003a0: 3cfc 24bd fd95 563c 47dd 14bb 9e3e 0d3e
000003b0: 7f18 1d3e 765a 5d3d 9eba 9fbd f142 78bd
000003c0: 1594 2f3e ecab 623e 6c7d bc3d fe62 ef3c
000003d0: 4cdb 7fbd 23bd ee3d 4acb 193e 2ca0 083d
000003e0: 2758 cfbc 8f32 dcbb 4c68 29be c018 74bc
000003f0: a77e 6c3d f44a 243c 4a86 d43d 2d56 23be
0.18383203 0.19172789 0.09693291 -0.12939417 -0.040702693 0.16383266 0.15295973 0.034783557
-0.19376013 -0.15737617 0.26808372 0.29327986 0.18815482 -0.18384036 -0.20700689 0.12923396
0.26092643 0.1985478 -0.33533287 -0.23706806 0.059951533 0.19963746 0.20065556 -0.18336174
-0.12828761 -0.10801882 -0.0049822633 0.022729795 0.1428999 0.07932161 -0.14376651 -0.022805048
0.13267055 0.20429134 0.09636912 -0.13937886 -0.052206185 0.13366747 0.087798245 0.099082455
-0.20853978 -0.1679204 0.11316005 0.21934855 0.15805085 -0.10881595 -0.110693425 0.07866866
0.14621507 0.068197235 -0.03687652 -0.002338814 0.044627085 0.07862284 0.006944216 -0.027256485
-0.15041012 -0.024994792 0.11370707 0.16289945 -0.095347755 -0.1440094 -0.14322223 0.057674386
0.12365308 -0.0450011 -0.09803969 -0.06914024 0.00046902674 0.19412385 -0.10726558 -0.18655834
-0.11677352 -0.05456343 0.17011063 -0.024708075 0.047435097 0.10328889 0.15943356 0.103061594
-0.117195226 0.019386582 0.021532893 0.12689468 0.18327776 -0.034605335 -0.11336465 0.019610936
0.05989117 0.1901026 -0.121659555 -0.19564399 -0.046162482 0.1513029 0.16042852 -0.03567653
-0.16946992 -0.057176217 0.099541 0.072382994 0.041519966 -0.044326477 -0.16658396 -0.0563953
0.02512013 0.18639325 0.015956616 -0.14528428 -0.10907745 0.041340753 0.15603295 -0.03148864
-0.2884561 -0.14815871 0.14097667 0.10019657 0.09340706 -0.3007548 -0.30286694 0.009933512
0.17595811 0.163909 -0.11586537 -0.29568365 0.052028116 0.17385502 0.033259206 -0.06715193
-0.05029477 0.0574756 0.1350058 0.18732086 -0.15295495 -0.17887029 0.0053758663 0.1485188
0.2656743 -0.24290347 -0.11597742 -0.025408413 0.28024492 0.18703836 -0.28108242 -0.28090915
-0.012653736 0.12999722 0.22095366 -0.0039966838 -0.26919153 -0.05108468 -0.2464015 -0.09392405
-0.046839178 -0.031399377 -0.09427802 -0.25055003 -0.33537123 -0.28729376 -0.057730585 0.048500016
-0.2873681 -0.38666892 -0.3941441 -0.1243906 0.09560629 -0.26416838 -0.4060249 -0.23726673
-0.04206986 0.033349447 -0.020390293 -0.21387823 -0.11687491 0.07473777 0.05098658 -0.0015034132
-0.047731914 -0.104438275 -0.00034620924 -0.14811118 0.08815926 0.014218612 -0.059908714 -0.06821261
-0.03764116 0.14868805 0.10273466 -0.010975311 -0.13353685 -0.14148912 0.17837387 0.17479296
0.08825407 -0.13050503 -0.08645837 0.18329772 0.09373031 -0.07752251 -0.13946341 -0.06786697
-0.08748286 0.062248074 0.049603537 -0.0964821 -0.07728568 -0.07480053 0.032849543 0.09381824
-0.040459804 0.038843703 0.11118791 0.099418394 0.20293744 0.13208443 -0.083729595 0.030026888
0.13484699 0.1900383 0.17976098 -0.066880345 -0.06280591 0.1292527 0.24478719 0.16250044
-0.058853876 -0.021740865 0.03471411 0.034493588 -0.13117497 -0.13235721 0.12413311 0.1215281
-0.040279612 0.013097283 -0.00227149 0.13793418 0.15341376 0.05404135 -0.07799266 -0.060610715
0.17146333 0.22135895 0.0920361 0.029222008 -0.062464997 0.11657169 0.15018955 0.033355877
-0.025310589 -0.0067198942 -0.16543692 -0.014898479 0.057737973 0.010027636 0.10377176 -0.15950842

conv2.bias f4 [16]
00000000: 7a3b e73d e638 913a 2e27 9bbb 1fc7 d4bc
00000010: 9d6b 133e 2e78 a5bd 6589 d23d ee4b aabd
00000020: 5742 94bd 7332 7f3c 71e8 98b9 e3a5 183d
00000030: b0fc 013d 479c 323c f17a 09bd d94c 1b3d
0.11290641 0.0011079579 -0.004734895 -0.025973855 0.1439652 -0.08079563 0.10280112 -0.08315264
-0.07239216 0.015575993 -0.00029164882 0.037267577 0.031735122 0.010901517 -0.03356451 0.037915085

fc1.weight f4 [120, 256]
00000000: 393e f5bd d5ff 963b dc11 1d3e 6b82 323d
00000010: 431e e8bd bbb1 5dbd dcd7 703d 05e4 ae3d
00000020: 6eec debd 47a3 01be 4b08 fe3c a01a f43d
00000030: 972a 10bd 2390 48bd 35ea bebc 3030 823d
00000040: ad42 c13d 97ef 583b da1b d9bd 0d17 ab3d
00000050: a23d d73d 20e1 913d 7baa 143d a890 20bc
00000060: 207c 913d 7da1 01bc f2d1 cabc 4649 eebd
00000070: 5644 f0bc 1d59 2dbd 4c8e efbc a022 8bbd
00000080: 6ae1 003d 6392 c7bd 5001 b53d 5440 e93d
00000090: 3728 7a3c 320e 82bd 8c69 d3bc 2ba6 373c
000000a0: 765d f1bc 0322 b0bb cfdb 0ebd b595 913d
000000b0: 04df a73b d80a d8bc e40d 843d fc1e 92b8
000000c0: 9a81 18bd 6608 343d 9a54 6d3d 7465 1c3d
000000d0: 86b1 6bbd 7041 5bbc 60a9 1a3b 445e 033d
000000e0: 7ccf ae3c a8fa 0a3d 985f 7d3c 0cbb b6bc
000000f0: 04aa 58bd 40c5 e0ba 0649 02bd 6441 2dbd
00000100: cc45 8b3b e184 873d 7637 963d 290b 8cbe
00000110: b933 00be 331f c23b 0640 4a3c ed62 ae3d
00000120: a4b2 ec3d 4511 103e 2a3e f0bc 8e0a e83d
00000130: 1ddf 113e d5df 8fbc c78c debd 177d 2fbd
00000140: 9e48 74bc 5616 f5bc f310 e53d 8c59 173b
00000150: 976d 15bd fff6 73bd 150e c13c bbab 39bc
00000160: 930d d1bd c148 79bd ce2e 3fbd 628c 103d
00000170: 0aba d7bd 182c 14bc 1623 d33d 058c 7a3d
00000180: 413a 71ba 6ac4 ff3d 5785 b83d 024a 3dbe
00000190: c802 4cbd d90f d13c 8e7a 193d e4f7 21bb
000001a0: 7693 f13c 0c4b c53d 58d3 963d 692a 043e
000001b0: 7abc 933d 20e7 bcbc f992 dcbd 50c2 f0bd
000001c0: c2b8 84bd 102a 2abb 8e3e 0d3a 2731 923d
000001d0: 26bb 03bd 9b3f 68bc c5ca 813d f15f 923d
000001e0: 3227 7abd ec27 aabd e982 1fbc 7eca 40bc
000001f0: 1e9f b6bd fb6e c33d fc92 593d 964c dd3d
00000200: 085e 7e3d 2e34 0abd 5869 0cbd 320b 353d
00000210: 72b2 65bd 262b 17bd 142e 6cbd 88d7 49bc
00000220: 0a1d 66bd 2022 23bc 40f1 a2ba 706e 633d
00000230: 40aa d43c 7a8b 243d 70ab 853b 2016 783b
00000240: 7478 0dbd 50a6 8b3b 0096 e43c 6887 bdbc
00000250: 2442 033d ac88 b5bc 6170 31bd 46a1 0cbd
00000260: dc23 513d 3f9a 333d 5640 acbc f4b0 553d
00000270: d8e6 b0bc c31e ed3c eb4c 243d 107b 2bbd
00000280: 6901 15bd 2aff 593d 330c c43c c033 07be
00000290: 5206 c93d 8e99 e83d 05f6 1ebe 32d6 e23b
000002a0: 33bd a93d e166 85bb 1989 8d3c ec92 f63c
000002b0: 595e 9a3d b3e5 083d fbc1 11be 0f65 b0bd
000002c0: 8c4a 143d a768 643d a53e 18bc 745a 833c
000002d0: b0f0 b33d f48a 0e3e 0128 9abc 7414 00bd
000002e0: 09ee 843c 5527 0fbb 67ef 57bc 437a 72bd
000002f0: 9370 d43d 25ea 6dbd 76a9 7bbd 3ee4 1ebd
00000300: 311b 2cbe d2f0 4fbd 8188 493e c421 f73c
00000310: 30be 07be 886f 20bd 7c79 8d3d b97d 53bc
00000320: 5852 eabd 91b4 603c d6cb 83bc 17b9 a63d
00000330: 6013 b73d 9d41 6e3d 09d3 86bd f70b 283d
00000340: 903a d93d 5575 4dbc 8a2a 3fbd 5c70 983d
00000350: 5747 ae3c 5cd7 11bd 7b65 84bc c067 173d
00000360: 526e 103d a429 15bd 1edf c6bc 03a6 a5bc
00000370: 99de 63bd 4189 25be 92f8 fbbc b145 c5bd
00000380: a97d c63c 720e f93d cbf7 473c b67b 923c
00000390: c95f 99bd e6c7 3fbe db67 353e 0690 a73d
000003a0: 1dd3 613c 7fe8 6f3d 267c 233d 540d b3bc
000003b0: 1d06 87bd 0fa7 12bd 58ab 5fbe 56bf 943d
000003c0: 12a6 babd 0615 1d3d b04f 633d 41d0 20bc
000003d0: 0f02 3cbd 82d6 943a 0bbd 7dbd 38fe b93c
000003e0: d094 733d b8da a0bd c755 353c 027f 9e3d
000003f0: 72ea 543d 4a3b 90bd 437e ccbc aae7 69bd
-0.11974759 0.0046081343 0.15338844 0.043581408 -0.11333897 -0.054124575 0.05879961 0.08539585
-0.10884939 -0.12659942 0.031009814 0.11919141 -0.035196867 -0.048965584 -0.023305038 0.06356847
0.094365455 0.003310179 -0.106010154 0.08354006 0.105098024 0.07123017 0.036295395 -0.009800114
0.07103753 -0.007912037 -0.024758313 -0.116350695 -0.02932946 -0.042321313 -0.029242657 -0.067937136
0.03146497 -0.09744718 0.08838141 0.11389223 0.015268377 -0.06350364 -0.025807165 0.011209051
-0.029463511 -0.0053751483 -0.034877595 0.071086325 0.005123021 -0.026372358 0.06447962 -6.967594e-05
-0.037232973 0.043953322 0.05794201 0.03818269 -0.057542346 -0.013382301 0.002359949 0.03207232
0.02133917 0.03393045 0.015464686 -0.022305988 -0.052896515 -0.0017148629 -0.03180792 -0.04229869
0.004250264 0.066171415 0.07334797 -0.27352265 -0.1251973 0.0059241294 0.012344366 0.08514962
0.115575105 0.14069088 -0.029326517 0.11330138 0.14245267 -0.017562786 -0.10866695 -0.042843904
-0.014909891 -0.029917877 0.111848734 0.0023094146 -0.036481466 -0.059561726 0.023566285 -0.011332448
-0.10207667 -0.0608604 -0.046675496 0.03529013 -0.10533531 -0.009043716 0.103094265 0.06116869
-0.0009202101 0.12488635 0.090098076 -0.18485263 -0.04980734 0.025520252 0.037470393 -0.0024714405
0.02948926 0.09633455 0.07364529 0.12906803 0.072136834 -0.023059428 -0.1077022 -0.11755812
-0.06480552 -0.0025965013 0.00053880445 0.07138281 -0.0321609 -0.014175321 0.06337503 0.071472056
-0.061072536 -0.08308396 -0.009735801 -0.011767028 -0.08917068 0.09542652 0.05311869 0.10805623
0.062101394 -0.03374117 -0.03428015 0.04420013 -0.05607838 -0.036906384 -0.05766113 -0.012319453
-0.056180038 -0.0099568665 -0.0012431517 0.055525243 0.025960088 0.040172078 0.004079275 0.0037854984
-0.0345387 0.0042617694 0.027903557 -0.023135856 0.0320455 -0.022159897 -0.043320064 -0.03433349
0.05105959 0.043848272 -0.021026772 0.05217071 -0.02159445 0.028945332 0.040112417 -0.04186541
-0.036378298 0.05322186 0.023931598 -0.13203335 0.09815659 0.11357413 -0.15523537 0.0069225067
0.0828804 -0.004071102 0.017277287 0.030099355 0.07537527 0.033422183 -0.14234154 -0.086130254
0.036203906 0.055763867 -0.009292279 0.016034342 0.08786142 0.13920194 -0.018817903 -0.031269506
0.016226785 -0.0021843512 -0.013179637 -0.05919863 0.10373034 -0.058084626 -0.061440907 -0.038791887
-0.16807248 -0.050766774 0.19680978 0.030167468 -0.13256145 -0.039168864 0.06907937 -0.012908393
-0.11441487 0.013714925 -0.016088407 0.08140772 0.08939242 0.058168042 -0.065832205 0.041027036
0.10606873 -0.012540181 -0.046671428 0.07443306 0.021274252 -0.035605773 -0.01616167 0.036964178
0.03526146 -0.036416665 -0.024276312 -0.020220762 -0.055632208 -0.1616564 -0.030758176 -0.09632433
0.024229841 0.12160958 0.012205075 0.017881256 -0.07488973 -0.18728599 0.17715399 0.08181767
0.0137832435 0.058571335 0.03991332 -0.021856941 -0.06592963 -0.03580385 -0.21842706 0.07263057
-0.09113707 0.038350128 0.055495918 -0.009815277 -0.0459004 0.0011355432 -0.061947864 0.022704229
0.05946809 -0.07854217 0.011067814 0.077390686 0.051981397 -0.070425585 -0.02496255 -0.057105698

fc1.bias f4 [120]
00000000: 8a8a 4d3d 7460 ffbc 318f fc3c 3258 e3bc
00000010: 9c00 573d 4816 f13c 5167 553d 0045 9d3c
00000020: 3555 1f3d 43da 683d f7d6 48bd 2f84 0cbc
00000030: 85f7 713b ad2d 68bc e4c0 4ebd 6aa3 0f3d
00000040: bdcf 9339 c097 e2bc d8d7 003b 4077 803b
00000050: 2d62 02bd 49e7 503d f641 c4bb 25b1 14bd
00000060: 7531 ca3c 86a0 d1bc 9675 053c b9cf 3d3d
00000070: 5eee c9bc 8514 8a3c fb33 503d 3843 59bc
00000080: 05db babc 6540 d2bc 711a a23d bf77 573c
00000090: 9831 993c 2b45 7dbd d63a 80bd c4a3 32bd
000000a0: 0990 943d bee3 e3bc 39c9 8f3c 6b27 0f3d
000000b0: 6542 953d 00ae 28bd 7d58 6bbd 1363 85bc
000000c0: ab00 563d 5f90 673d 9d0d dabc dfb5 ecbc
000000d0: 0e32 253d fbbd 8b3b 4827 803d b0b7 9f3c
000000e0: 6978 5ebd 850d ccb9 cd38 043d 2a97 32bd
000000f0: f45b 0d3d 1849 4d3d 3e61 edbc 3c63 4dbd
00000100: d710 2a3d 5150 ad3c 6213 46bd 18eb 67bc
00000110: cf02 013d c2be 603d 83d5 96bc 0c1f 9f3c
00000120: 3bb6 ecbc 38e2 3e3c 727f 4d3d 7da4 1c3c
00000130: a7b9 e7bc 5dc0 5dbc 853f 1abd 1cc2 ecba
00000140: 87b9 213b 9905 cfbc b0da 903d 5482 553d
00000150: b3fc 5d3d ccf9 763d e118 d4bc 6861 f93a
00000160: 8279 ad3c fc0c 80bc b2a3 5cbd e6df 073c
00000170: 72f3 85bd 9525 d23c 5065 473d 62ea 32bc
00000180: 7e48 38bd afdf b23c f7d6 733b 1787 483d
00000190: 2eaa 00bc 9274 23bd 294c 64bd 702a 9fbc
000001a0: 8501 6fbd dfcd 8bbd 4330 5ebd 9103 883d
000001b0: 056e 5fbc 7eae 54bd ca15 27bd a06e d8bb
000001c0: 8820 91bc 4ca4 773d 3787 85bb a2cc 923c
000001d0: 2f34 933d a7e4 b03b d020 7dbd 7080 f33c
0.05018095 -0.031173922 0.030829998 -0.027752016 0.052490816 0.02942957 0.052100483 0.01919794
0.03889962 0.056848776 -0.04903313 -0.008576437 0.0036921215 -0.014171046 -0.050476924 0.035067953
0.00028192802 -0.02766025 0.0019659903 0.0039204657 -0.03183191 0.05100182 -0.0059893085 -0.03630175
0.024681786 -0.025589239 0.00814571 0.046340678 -0.024649795 0.016855488 0.050830822 -0.013260655
-0.022809515 -0.025665471 0.079151995 0.013151108 0.018700406 -0.06183354 -0.06261222 -0.04361321
0.07254035 -0.027818557 0.017552005 0.0349497 0.072880544 -0.041181564 -0.057457436 -0.016282594
0.05224673 0.056534167 -0.02661782 -0.028895317 0.04033094 0.004264591 0.06257492 0.019496769
-0.05431405 -0.00038919985 0.032280732 -0.043601193 0.03451152 0.050118536 -0.028977033 -0.050143465
0.041519966 0.021156462 -0.04835833 -0.014155172 0.03149682 0.05486942 -0.018412357 0.019423984
-0.028895488 0.011650614 0.05017037 0.009560701 -0.028286768 -0.0135346325 -0.037658233 -0.001806322
0.0024677233 -0.025271224 0.07072961 0.052126244 0.05419607 0.06029682 -0.02589077 0.0019026222
0.021176104 -0.015631191 -0.05386705 0.008293128 -0.06540574 0.025652686 0.048680604 -0.010920139
-0.04499101 0.021835176 0.0037206986 0.048956957 -0.007853074 -0.039906092 -0.055736694 -0.019429415
-0.05835106 -0.06826376 -0.054245245 0.06641305 -0.013637071 -0.05192422 -0.040792264 -0.0066049844
-0.017715707 0.06045942 -0.0040749568 0.017919842 0.071876876 0.0053983512 -0.06179887 0.02972433

fc2.weight f4 [84, 120]
00000000: 02fa 323c 1b62 373e 5a0c b3bb d550 5bbd
00000010: 0e84 d2bd 39b1 e43c 5ead 8d3c 7c0d 3dbd
00000020: 3d28 573d c4f6 00bd ab1f e8bd dbad c83c
00000030: 2a79 f0bc 7c7d 353d e076 d13b cc13 8b3d
00000040: a7e9 223d 338e 36bd cf63 123d f8bc f7bc
00000050: 57d8 353d 5608 c1bd 2c10 42bb 076a a13d
00000060: d2e1 483e ab24 8c3c 7aed 353d a75b 493d
00000070: 14f2 eebd dd63 28bb 9516 3f3e 4048 2e3b
00000080: 3e91 a73d 1726 4dbd 2355 e4bc 1d00 903d
00000090: 1f76 cfbc 0cb2 ea3d c7a6 023d 7132 a9bd
000000a0: a3d8 dcbd 7857 1fbe 364a 8c3b 9a64 3d3d
000000b0: cccf cabd e063 093c 40d8 7bbd 7834 0d3d
000000c0: 5b6a 0a3e 2030 10bd 64bc e0bd 525e a8bd
000000d0: 11ef c4bb 2727 743d 01b8 023e 7bb5 c1bd
000000e0: 2d94 613d bfd9 13be e473 49bd 6e16 263e
000000f0: b795 19bd a553 83bd a48d 97bd 012c 683d
00000100: 6b98 39bd ee0b a33d c847 5abd ad75 30bd
00000110: 7c15 69be f90a 5b3d f0ed a93d 6465 1d3d
00000120: 842a fcbc c3fc 9ebd ee51 44bc b3f9 9cbd
00000130: 25a4 7139 34f7 333e 256e 5bbd 608d 873d
00000140: 46ac 723d c3e7 bc3d bed5 693d eaeb ba3d
00000150: ad96 2e3d 346f 4c3e 5d20 943d 383d ac3d
00000160: e6a6 d33d e461 363e a007 1cbd aba0 88bd
00000170: c13b 503d 8a58 3f3d 0d69 f03b 4582 483a
00000180: cd75 ae3d a5c6 9dbd 80ea 413e e7ac 42bd
00000190: b376 2cbe b990 fe3d 91d1 93bc e0f7 c33d
000001a0: 3fd4 08bd 53c8 333d 940c 843d af18 acbd
000001b0: 1de6 dd3b 0bcd 56bd 1a33 6c3d 5ae2 a63d
000001c0: 92c5 4ebd ff6e fb3d 99b1 233d 190a 5f3c
000001d0: 3cb4 693d 1283 86be 0ad2 893d 827c 69bc
000001e0: 0f4e 9d3d fdbe 9abd 244e 9cbd c4cb 98bc
000001f0: 1aff c6bd 5d19 543d 289b bf3c f63f 093d
00000200: b260 953d c08a 97bc 62ba a13d a0d3 363b
00000210: e48b 95bc 5db0 453b 6c47 ba3d 40f9 17bd
00000220: cc36 883c 10d8 82bd 6504 cebd 02ae 1a3d
00000230: 2041 b4bc df6c b0bc b5d6 92bd bc21 9a3d
00000240: 0bd4 7abd a2fe 42bd d0d8 bebc 5872 2dbd
00000250: 0dc1 2e3c 401e 7c3d 2912 fc3c 50ef 163c
00000260: b134 b0bd fd3a 8fbd 0009 983c 546e ef3c
00000270: 1412 553d aa63 80bd 1ded 173c 56b6 b4bd
00000280: 1571 483d 4fc5 2cbd 5070 e4bb eb3c 06bd
00000290: 978a 8dbd 4ef7 52bd 78ad 42bc 54f1 bdbc
000002a0: f98a 893c c21d 5f3d 595b a1bc 76ca 91bd
000002b0: 31dc 7a3d f342 62bd 68c2 f3bc a013 6fbb
000002c0: ff32 93bd 9bac 1d3d ccf8 6b3d 0ce6 043d
000002d0: 285c 0abd a0e4 81bd 3f51 74bd 809f 2ebd
000002e0: d4e3 0eb7 c5dc 7bbd 1722 36bd c1cb 9f3d
000002f0: c038 8fbd ee1a 003d 7018 b9bd c61b 1ebd
00000300: 400f 0bbd 7813 e53c e081 e03c 2927 80bd
00000310: 3094 0abc 8846 953c 00f6 5a39 640e 4b3d
00000320: b041 58bc 94a6 843d ef1b 103d bfe8 8b3d
00000330: 1380 823d 616b 9d3c cc6a a9bc ec81 25bd
00000340: 288a 86bd e631 dd3c 362f a83d 48b4 203d
00000350: 4031 98ba 5729 c0bc 9ad3 093d 0079 88bd
00000360: 20cf eebb 2a4d b93d c185 dc3b 66b6 aabd
00000370: 6735 b1bd b199 fbbc 8023 27bc aceb 79bd
00000380: beee a5bd 0070 51bc f015 9cbc e67b d03c
00000390: 901a 08bc d4f0 b83d 5f88 90bd cfde 82bd
000003a0: 2fb7 2abd 181b 22bc b563 2abd a05c 603d
000003b0: 3a9c 1cbd f724 60bd 6834 133c 4e5e c7bd
000003c0: 12fc 83bd 0021 c1bd e738 72bd 0d60 05bd
000003d0: 9d8a 153e 865c 753b e1d6 0b3d 4839 883d
000003e0: 30c8 b8bc 5216 54bd 60cd 73bd 4bca 083d
000003f0: 9390 edbd addd 1c3c ac18 e83c 9087 243e
0.010923864 0.17908518 -0.005464119 -0.053543884 -0.10279094 0.027916538 0.017294582 -0.046155438
0.05252861 -0.031485334 -0.11334165 0.024496963 -0.02935465 0.044309124 0.006392345 0.06790885
0.03977361 -0.044569205 0.035739716 -0.030241475 0.04439577 -0.09425418 -0.002961169 0.07881551
0.19617394 0.017107328 0.04441593 0.049159672 -0.116672665 -0.0025694289 0.18660958 0.0026593357
0.081819996 -0.050085153 -0.027872628 0.070312716 -0.02532488 0.11459741 0.031897333 -0.08261574
-0.10783508 -0.1556071 0.0042813076 0.04623852 -0.09902915 0.008385628 -0.06148553 0.034473866
0.13517134 -0.035202146 -0.10973433 -0.08221115 -0.0060099442 0.05960765 0.12765504 -0.09458443
0.055072952 -0.14438532 -0.049182788 0.16219494 -0.037496295 -0.06412438 -0.07400063 0.05668259
-0.045311373 0.0796126 -0.053291112 -0.043080974 -0.22762102 0.05347726 0.08297336 0.03842677
-0.030781992 -0.07763054 -0.011982424 -0.07664814 0.000230447 0.1757477 -0.05357184 0.06618762
0.059246324 0.092238925 0.057088606 0.09127028 0.042624164 0.19964296 0.07232735 0.08410114
0.10334568 0.1781078 -0.03809321 -0.0667127 0.050838236 0.046715297 0.007336742 0.0007648806
0.085185625 -0.07703904 0.18937111 -0.047528174 -0.16842155 0.124299474 -0.018044265 0.09568763
-0.03340554 0.043892216 0.064477116 -0.084031455 0.0067718164 -0.052441638 0.05766592 0.08148642
-0.050481386 0.1227703 0.039964292 0.013613247 0.05705665 -0.26271874 0.06729515 -0.014250876
0.07680904 -0.075559594 -0.07632092 -0.01865185 -0.097166255 0.051782 0.023389414 0.033508264
0.07293834 -0.018498778 0.07896878 0.0027897134 -0.018255182 0.0030164935 0.09095654 -0.037102938
0.016627692 -0.06388867 -0.10059432 0.037763603 -0.02200371 -0.021536289 -0.07169858 0.075259656
-0.061237376 -0.047606118 -0.023296744 -0.042345375 0.010666144 0.061552286 0.030770378 0.00921233
-0.086038 -0.06993673 0.018558979 0.029227413 0.052019194 -0.062690094 0.009272841 -0.0882384
0.04893597 -0.042180356 -0.0069713965 -0.03277294 -0.069111995 -0.05150538 -0.0118821785 -0.023186363
0.0167899 0.05447174 -0.019696878 -0.071186945 0.061245147 -0.05523963 -0.029755786 -0.0036480203
-0.07187461 0.038494688 0.057610318 0.032445952 -0.033779293 -0.06342435 -0.059647795 -0.04263258
-8.516905e-06 -0.06148984 -0.044466104 0.07802535 -0.06993246 0.031275682 -0.09037864 -0.038600706
-0.03395009 0.027963385 0.02740568 -0.06257469 -0.008458182 0.018222108 0.00020881742 0.04957427
-0.013199255 0.06477085 0.03518289 0.06831502 0.063720845 0.019216241 -0.020680808 -0.040407106
-0.0656932 0.027001332 0.0821213 0.03923443 -0.0011611357 -0.023457212 0.033649065 -0.06663704
-0.007287875 0.09047921 0.006729812 -0.08335571 -0.08652764 -0.030712934 -0.010201335 -0.06101577
-0.08102177 -0.012783051 -0.01905343 0.025449704 -0.008307114 0.09030309 -0.07057261 -0.063901536
-0.041678604 -0.009894155 -0.041598994 0.054775834 -0.038234927 -0.054722752 0.008984663 -0.09734784
-0.06444563 -0.094301224 -0.059136298 -0.032562304 0.14603658 0.0037439181 0.03414047 0.066515505
-0.022556394 -0.0517791 -0.059522033 0.033396047 -0.11599841 0.009574336 0.028332077 0.16067338

fc2.bias f4 [84]
00000000: 90d7 e43d 571a bbbd ded4 c2bd 71e3 67bd
00000010: 9546 ccbd 5fce 49bd 225b 1c3c ee33 36bd
00000020: fb1c 68bd 1e20 59bd c5d8 e9bb a62c ef3c
00000030: 5229 ae3d 2cd6 5d3d 9ac5 653d 885f b8bd
00000040: 596e f13c a002 ea3d 15ea d0bc 6460 87bd
00000050: 9d9f b23d a5df 8b3d 6383 2ebd f1c7 0e3d
00000060: 5f3e 53bd 6a67 813d 0e9e 39bd be95 e33a
00000070: 1985 9ebc b6e7 31bd dbc1 febc 29cc ac3d
00000080: fb24 8bbc 67fb f8bb 5a85 f9bc a5c1 82bd
00000090: a98a 4c3d cf14 393c f675 efbc 5413 8ebd
000000a0: c726 90bd 83d0 14bd 639e 4e3c bfe7 30bd
000000b0: d3d0 5b3d 0eb6 483d 79d3 a83d 2d01 363d
000000c0: a515 4fbd 8780 393d bff7 933c 689d 6c3d
000000d0: 579d 073c 99c9 12bc c4c8 313d 70db f23c
000000e0: 287e 853d da4f 89bc 6283 8e3c abe5 34bc
000000f0: 9963 d43d 694d 5d3d 07ab 023d 3ff9 c73c
00000100: a0fa a43d 2fb0 eabb 01e3 50ba 9047 793c
00000110: 3428 db3c d1ea 673d 2170 17bd f666 3dbb
00000120: 8a71 973d 1034 cbbc 4e14 473d 9ee5 a3bd
00000130: 4342 99bb 48c4 36bd 28e5 383d 853d da3c
00000140: b08e 73bd 5cc8 87bd 09ac 05bd c1c2 5a3d
0.11173928 -0.09135883 -0.095132574 -0.05661339 -0.099744 -0.049269076 0.009543212 -0.044483118
-0.056668263 -0.053009145 -0.0071364366 0.029196095 0.08503975 0.05415933 0.05609665 -0.09002596
0.029471563 0.11426282 -0.025502244 -0.06610182 0.0872185 0.06829766 -0.04260577 0.034858648
-0.051573154 0.06318553 -0.04531675 0.0017363352 -0.019350575 -0.043433867 -0.031098297 0.08437378
-0.016985407 -0.007598329 -0.030459095 -0.06384591 0.049936924 0.011296465 -0.029231053 -0.0693728
-0.07038646 -0.036331665 0.0126110045 -0.04318976 0.053665947 0.049001746 0.0824346 0.044434715
-0.05055775 0.04528859 0.01806247 0.0577673 0.008277259 -0.008959197 0.043404356 0.029645652
0.06518203 -0.016761709 0.017396633 -0.011041085 0.10370559 0.054028902 0.031901386 0.024410842
0.080556154 -0.007162116 -0.00079683965 0.015214816 0.026752569 0.056620423 -0.03697217 -0.002890048
0.07394703 -0.024805099 0.04860335 -0.080027804 -0.0046770885 -0.044620782 0.045140415 0.026640663
-0.05946225 -0.066300124 -0.03263477 0.053408388

fc3.weight f4 [36, 84]
00000000: 8cfe 823c 6fc9 c13d 1de6 b43d 18c6 c7bd
00000010: 3ea4 98bd 0489 fdbd fc93 923d 040a 1e3d
00000020: 09af 86be 3e46 23bd a626 ae3c 3d4d 3a3d
00000030: d424 ce3d 5ca8 67bd 4d59 133d 42dc bc3c
00000040: c662 813d 1bee 003e e786 e63c 5470 e1bc
00000050: b674 273d 83df 533d 2c4f 23be 184f 9bbb
00000060: a143 c83d f459 f73b b1d4 ae3d 30e4 8bbe
00000070: 16b0 5f3d db6e 0f3c 93fe 30bb a119 9a3d
00000080: 9bec 593c edcf 3dbd 9dba 9ebe 6195 71bc
00000090: 91d9 12bd 7feb debd 8ce9 603d 7361 37be
000000a0: bdee 2e3c 0cc7 4f3d 8862 353d 2538 b03d
000000b0: dd85 62bd 6a18 a13d 5847 003d 3d26 ad3d
000000c0: 3135 b53d 0e5d 86ba 1a62 9abe 7ab8 a03c
000000d0: 2a4b 90be e742 0f3d 41e7 c3bd 2316 bd3d
000000e0: bff6 8a3d 9be3 c53c 13b9 0a3e ba46 88bd
000000f0: a348 42be 1503 7b3c 739c 98bd 10f8 eb3c
00000100: 15d0 ee3d 3f62 e03c 7bdb 3c3a ce65 91be
00000110: 13cd 843d 0570 cc3d add1 26be 7f5e 91bd
00000120: 4f52 8abd 68ba 5f3d c15a c8bc aa78 b0bc
00000130: c0b9 463d 2b2d bbbc 55b4 9b3c a316 f1bd
00000140: 05b4 31bd daf3 c239 4e0c a53c 0cb7 ecbc
00000150: 8c25 89be eee9 ca3d 4ad8 6bbd 6dae a2bd
00000160: e69a a43d f6e2 40bd 1c0d b73d d49a 89be
00000170: 69d8 3a3d 536f 3abd 4b92 76be 4a6f 49bd
00000180: e07c 5cbe 2abc c23d fed0 213d 7f83 c53d
00000190: 6318 4cbb 1f2e a3bd 5726 4b3d e9ec 69be
000001a0: 415c e43d 14f6 00be 91f7 b83c e95a 34bd
000001b0: 6ef4 a7bb a8b1 ad3d 188c a23b f151 44be
000001c0: 2a2e 92bd d6cc 123d 4f98 b43a 4a1c 04bd
000001d0: 29e9 e2bc 268c 04be 6397 63be 11ea 793e
000001e0: 1686 1e3d 5eed 6c3d b65d 3fbd 366f 1d3e
000001f0: 7023 02bd a6d7 5dbd 45f8 c9bd 159e 41bd
00000200: 887b 393d 157c dfbd 831d 573d b326 b2bd
00000210: b002 78bd 2bd9 1bbe 38e7 843d e949 603d
00000220: ad92 283c 09b5 ecbd 9601 f13c fcac 44bd
00000230: d7f9 c4bd 4c42 93bc 61b7 2abd c6b8 74bc
00000240: 0d07 ec3d 3cb2 0fbe a79d 02bd 8634 043d
00000250: b6e0 fdba 270e 293d 6491 3b3d 0cec d7bc
00000260: 764a a33d aca3 b53d 6b72 943d 8cf9 f7bb
00000270: e0bd d9bd f139 843d 652b e93d c473 1cbd
00000280: 52d2 ca3c ec73 c23d df5b d7bc cea8 43bd
00000290: de2d 713d 0271 5d3d 46bb 223d 5e40 fe3d
000002a0: d22c bf3d c4e5 413d 4c13 82bc 4e9d 7bbd
000002b0: eba1 b6bc dfdb 68bc 3dc3 d7bc f050 4b3c
000002c0: a186 20be 76e6 153e da3d 03bb ad1d 09bd
000002d0: f127 a4bd 0b36 073e afc4 8b3d 22b5 8c3d
000002e0: edd2 b9bc f6ca 64bd 00cd debd 1aa0 8abe
000002f0: 3f8c 043e ada6 02be bb5e 99bc a295 46bd
00000300: 1fce 60bd 104b 863d 68e2 133d e3da 70be
00000310: 1b32 f6ba 9275 42bd 93ad df3d ee82 f6bc
00000320: c214 c53d 145a 01be 42f1 bcbd f99c 93bc
00000330: 822c 8c3d 6663 41bc fe87 0c3d b291 52be
00000340: d707 93bd 0f61 2bbd 330c abbd ca84 c5bd
00000350: f086 c2bb 8a7b 94bd c6d9 4dbd 3950 92bd
00000360: bb4f 653d 183c 613d 1982 e9bc c41e c0be
00000370: 9936 95bd 9869 90bc 6804 21bc 6265 7abe
00000380: b6df 8abd 308a 453c bf8a bd3d d039 c83d
00000390: e5b9 2a39 f56b 0c3e cf26 89be a873 2c3d
000003a0: 8c1f 6ebd 56aa 133d 765f 70bc 2ea7 d5be
000003b0: de6c 6f3d 2a88 d23d 3882 3bbd ba35 ac3d
000003c0: a21f d13d 7534 b83c 91ff dabc e4da 83bb
000003d0: 306f 083e 6f39 a93d a7c2 9fbd 7028 1a3d
000003e0: 671a 87bd b16b f83c 5e58 1c3d caf4 cb3d
000003f0: dedc fd3d b6df 9d3d 5894 aabd afbb 0fbe
0.015990518 0.094622485 0.08832953 -0.0975458 -0.07453202 -0.12379649 0.07157132 0.03858377
-0.26305416 -0.03986191 0.021258663 0.045483816 0.10065618 -0.056557044 0.035973836 0.023054246
0.06317668 0.1259083 0.028140498 -0.027519383 0.04088279 0.05172683 -0.1594817 -0.0047396533
0.09778524 0.007548565 0.085366614 -0.2732253 0.054611288 0.008754457 -0.0027007207 0.075244196
0.01330104 -0.04634087 -0.3100175 -0.014745087 -0.03585202 -0.10884761 0.054910228 -0.17908268
0.010677037 0.050726935 0.04428342 0.08604459 -0.055303443 0.07865985 0.03131804 0.08454559
0.08848036 -0.0010251121 -0.3015297 0.019619215 -0.28182346 0.034975912 -0.095655926 0.09232738
0.06785344 0.024156382 0.13547163 -0.06654115 -0.18973021 0.015320559 -0.07451715 0.028804809
0.11660782 0.027390597 0.0007204336 -0.28397983 0.06484427 0.099823035 -0.16290922 -0.07098102
-0.0675398 0.05462113 -0.024457337 -0.021541912 0.04851699 -0.022848686 0.019006887 -0.11771896
-0.04338457 0.00037184247 0.020147469 -0.028895877 -0.26786458 0.099079 -0.057579316 -0.07943425
0.08037357 -0.047091447 0.08938047 -0.26875937 0.04561654 -0.045516323 -0.24079244 -0.0491784
-0.21532011 0.09508546 0.03950595 0.096442215 -0.0031142465 -0.07967781 0.04959711 -0.2284428
0.111504085 -0.12593871 0.022578986 -0.04403201 -0.005125574 0.08481151 0.004960548 -0.19171883
-0.07137711 0.035839878 0.0013778302 -0.03225354 -0.02769907 -0.12944087 -0.22225718 0.24405695
0.038702093 0.05784356 -0.04672023 0.15374455 -0.031772077 -0.054160737 -0.09861807 -0.0472699
0.045283824 -0.10912339 0.05251838 -0.086987875 -0.060549438 -0.15219562 0.06489414 0.054757986
0.0102888765 -0.11557967 0.029419702 -0.048016533 -0.09617966 -0.017975949 -0.04167879 -0.014936632
0.11524782 -0.14032835 -0.03188863 0.032276653 -0.0019369337 0.041273262 0.045792952 -0.026357673
0.07973187 0.088691086 0.07248386 -0.00756759 -0.10631919 0.06456364 0.1138523 -0.03819634
0.024758492 0.094947666 -0.026288925 -0.047768407 0.058881633 0.05406285 0.03972938 0.12414621
0.09334721 0.047338262 -0.015878342 -0.061429314 -0.022294005 -0.014212578 -0.026338214 0.012409434
-0.15676357 0.14638695 -0.002002588 -0.033475567 -0.08015431 0.1320421 0.06824624 0.06870486
-0.022683585 -0.05585762 -0.108789444 -0.27075273 0.12944125 -0.12758894 -0.018721929 -0.048482545
-0.054884072 0.06557286 0.03610459 -0.23520999 -0.0018783243 -0.047475405 0.109217785 -0.030091729
0.096231 -0.12632018 -0.09225704 -0.018019186 0.06844427 -0.011803484 0.03430938 -0.20563391
-0.0717923 -0.04184061 -0.08351936 -0.09644468 -0.005936496 -0.07250126 -0.050256513 -0.071442075
0.05598424 0.05498895 -0.028504418 -0.37523472 -0.07285804 -0.017628476 -0.009827711 -0.24452737
-0.06780951 0.012056872 0.09254979 0.09776652 0.00016281714 0.13713057 -0.2678742 0.042102486
-0.058135554 0.036051117 -0.014671197 -0.4172911 0.058453433 0.102798775 -0.045778483 0.08408685
0.102111116 0.022485951 -0.026733192 -0.0040238965 0.13323665 0.08262908 -0.07800799 0.03763622
-0.06596833 0.030324789 0.03817021 0.09958799 0.12395643 0.07708685 -0.083290756 -0.1403644

fc3.bias f4 [36]
00000000: 1b61 303d 1c4d acbd 2649 a33d 552e c83d
00000010: da75 343d 3f0e 91bc 1884 10bc 6a15 28bd
00000020: 16a6 5cbd 2b12 86bc 65f1 a2bc d026 44bd
00000030: a5c5 1abd 3af8 b1bd b4f3 a9bd 3257 7cbd
00000040: 035e 6d3b c59f a8bc 20f6 ecbd 0021 b33d
00000050: c0d5 c0bc 1938 1fbd 3378 813d 1a45 febb
00000060: 155c 58bd b194 c33c 6cbf d83d 98b4 a7bc
00000070: ad21 98bd cb39 d73c bbe4 a73d b622 7b3d
00000080: 7838 d33d 9b77 babb ba2e 803d 8cd8 be3c
0.043061357 -0.08413145 0.07972936 0.09774462 0.044057705 -0.017706988 -0.008820556 -0.041036047
-0.05386933 -0.016366085 -0.019890497 -0.047888577 -0.037786145 -0.086899236 -0.08298436 -0.061606593
0.0036219365 -0.020583997 -0.11570382 0.087465286 -0.023539424 -0.03887186 0.06321754 -0.0077597024
-0.05282219 0.023874613 0.10583386 -0.020471856 -0.07428298 0.026272675 0.08197924 0.0613124
0.10313505 -0.0056905276 0.062589124 0.023296617
